attn_enc.pth (torch, 737131 bytes, 5 tensors)

embedding.weight f4 [2484, 64]
1.1788073 0.060866423 0.3419585 -0.55786765 1.2102424 -0.4221114 2.4461915 -0.34081632
0.79804486 -0.2451494 0.15449408 -0.08857689 -0.87030625 -0.10800321 0.8639539 -0.3138628
0.2619708 -1.133159 -0.21125196 -0.36268425 -0.8570766 1.13759 0.27388087 -0.95824826
-1.4843941 0.11397027 1.1413909 1.4884858 0.43437275 0.1742622 2.1687698 0.67263836
0.21054378 1.858012 -1.8365028 -1.6707335 -0.48354077 1.5832862 -0.4502656 -0.42129248
-0.64623535 -0.5231671 -0.56338537 1.6334136 -0.38316613 0.96799564 -0.4904061 0.36501786
-0.51304543 -0.4059333 -0.8222542 0.0035515171 -0.941718 0.7709635 1.2355598 1.2497339
1.1738957 -0.4806759 1.2065989 0.77300435 0.4741353 -0.9547851 -0.8010874 1.9768181
1.4463074 -0.5716298 1.8567727 3.963613 0.92130667 -1.9189327 2.1270208 0.20728588
1.2335689 -0.15149772 -0.56883603 -0.40514556 0.9084676 0.66432774 1.4857426 -0.8998441
-1.1155264 0.6383737 -0.64039147 2.3745365 -0.54513866 0.50176895 -2.7186105 -0.0075098523
2.7700076 0.60006297 0.020165296 1.969842 -1.0660448 -2.4969616 0.78196096 -2.9595747
-1.0869197 -2.845657 2.5571415 -1.9322697 0.71320206 0.1817185 0.86193955 -1.2121944
-1.2614003 1.8646337 -0.71013856 1.4647231 1.1952811 1.0725193 1.6303815 -0.76476353
1.2308972 -0.6826213 3.214843 -2.207664 0.12426835 -0.9302858 1.3513284 -1.757206
-1.4657751 -0.87315524 -2.6306896 1.8195974 -0.053622622 0.2640473 -2.5784156 2.281088
0.856051 1.7863494 -0.11629704 -0.30477536 1.4373174 -1.2820837 -1.487744 -0.07549635
-0.5068189 0.4687742 -0.34107843 -0.75417763 0.58689785 -0.8146267 1.6083348 1.2109343
1.112496 0.028605795 -0.120358564 -1.2308902 1.2045203 -0.20961957 -0.39407504 0.57092357
1.2612541 1.0897338 -0.7139379 -0.50537026 -0.85637474 0.938663 1.5592635 -0.29485628
0.09404045 -0.63757014 1.2651304 -1.2055919 -0.21012409 -0.36109012 -1.2290146 0.7088103
-0.7951796 0.97515637 0.6403977 0.7323709 -0.17178501 0.28733158 0.08918537 0.062253486
-0.7124275 -0.23560166 2.1361356 -0.26344854 -0.4666466 0.40413693 0.57190347 0.21730265
-1.4099364 1.0501819 -0.8123141 1.1554451 0.16674343 1.1759843 -0.8698574 0.08500906
-0.82281005 1.1621636 -2.3142188 -0.19182879 1.0028814 1.1954346 1.062537 0.74457467
0.47558528 -0.8075251 0.8081483 -0.45996484 -0.21844529 -0.7462632 0.023063665 -0.87846226
-1.3748443 0.0036842497 -0.14917415 1.0700477 -0.7810443 0.9276569 1.3375349 -0.9326713
-0.6209834 0.034211006 0.0053624418 -0.43706268 -1.6113467 0.424756 2.1036065 0.71435297
0.32791433 1.1604372 -0.79722935 0.4485324 -1.7766173 -0.19677484 0.97459996 1.3026565
-0.27242094 -2.415618 -1.948347 1.0473642 1.438656 0.78076196 0.06891723 -0.17184377
-0.28802636 -0.39761496 -0.4682104 -0.30253595 0.6233482 -1.2979958 -1.9735332 0.6136395
1.156088 0.17138018 1.118271 0.07303247 -0.9282599 0.11264342 0.55653554 0.08004582
00000000: 28e3 963f 124f 793d 2f15 af3e 6ad0 0ebf
00000010: 39e9 9a3f fc1e d8be 678e 1c40 7a7f aebe
00000020: ab4c 4c3f 7208 7bbe b233 1e3e cd67 b5bd
00000030: 64cc 5ebf c930 ddbd 152c 5d3f a0b2 a0be
00000040: 0921 863e 5b0b 91bf 6f52 58be c0b1 b9be
00000050: 5f69 5bbf 8d9c 913f 1d3a 8c3e c24f 75bf
00000060: a000 bebf 3f69 e93d 1919 923f b486 be3f
00000070: 1b66 de3e ca71 323e 20cd 0a40 0732 2c3f
00000080: ca98 573e 56d3 ed3f 8612 ebbf 98da d5bf
00000090: a892 f7be 1fa9 ca3f 3689 e6be a6b3 d7be
000000a0: ae6f 25bf 47ee 05bf 063a 10bf b213 d13f
000000b0: 5a2e c4be 90ce 773f 8216 fbbe 9fe3 ba3e
000000c0: f256 03bf 7dd6 cfbe 407f 52bf 92c0 683b
000000d0: 6e14 71bf dd5d 453f d326 9e3f 48f7 9f3f
000000e0: 3742 963f 271b f6be d571 9a3f 9de3 453f
000000f0: ddc1 f23e cc6c 74bf 1014 4dbf 6008 fd3f
00000100: 9a20 b93f 5556 12bf baaa ed3f d6ab 7d40
00000110: c1da 6b3f 969f f5bf 1c21 0840 c042 543e
00000120: 96e5 9d3f 3822 1bbe 3d9f 11bf 3d6f cfbe
00000130: 5591 683f 6211 2a3f d02c be3f 2f5c 66bf
00000140: 92c9 8ebf 756c 233f b2f0 23bf 68f8 1740
00000150: 358e 0bbf ee73 003f b7fd 2dc0 3515 f6bb
00000160: ce47 3140 ba9d 193f b131 a53c c823 fc3f
00000170: 2874 88bf 38ce 1fc0 982e 483f ac69 3dc0
00000180: 2f20 8bbf 3f1f 36c0 35a8 2340 9d54 f7bf
00000190: 6994 363f 6a14 3a3e 12a8 5c3f 3029 9bbf
000001a0: 9175 a1bf 51ac ee3f a4cb 35bf 0c7c bb3f
000001b0: f9fe 983f 5048 893f 57b0 d03f 8bc7 43bf
000001c0: 0a8e 9d3f 45c0 2ebf fdbf 4d40 5e4a 0dc0
000001d0: 6880 fe3d 3627 6ebf 54f8 ac3f 20ec e0bf
000001e0: 859e bbbf 1a87 5fbf 385d 28c0 91e8 e83f
000001f0: 65a3 5bbd 3531 873e c304 25c0 59fd 1140
00000200: 2926 5b3f 19a7 e43f 242d eebd 840b 9cbe
00000210: 04fa b73f 521b a4bf 656e bebf d59d 9abd
00000220: e2be 01bf 2c03 f03e d5a1 aebe c911 41bf
00000230: f03e 163f 608b 50bf eadd cd3f e5ff 9a3f
00000240: 4566 8e3f b356 ea3c 8d7e f6bd cf8d 9dbf
00000250: b92d 9a3f 83a6 56be 34c4 c9be 0c28 123f
00000260: c670 a13f 667c 8b3f a2c4 36bf f25f 01bf
00000270: 603b 5bbf 384c 703f f295 c73f 67f7 96be
00000280: 4898 c03d cc37 23bf cbef a13f d650 9abf
00000290: c52a 57be cee0 b8be 5a50 9dbf 9874 353f
000002a0: e490 4bbf d9a3 793f 1bf1 233f a97c 3b3f
000002b0: 69e8 2fbe 201d 933e d2a6 b63d 83fd 7e3d
000002c0: a661 36bf 9041 71be 72b6 0840 bae2 86be
000002d0: 4eec eebe 09eb ce3e 4468 123f 9684 5e3e
000002e0: cc78 b4bf 5c6c 863f d1f3 4fbf a0e5 933f
000002f0: cabe 2a3e a786 963f f9ae 5ebf 3b19 ae3d
00000300: aea3 52bf c7c1 943f 291c 14c0 c46e 44be
00000310: 6b5e 803f 0004 993f 3601 883f 729c 3e3f
00000320: ea7f f33e f7b9 4ebf cfe2 4e3f 8380 ebbe
00000330: 1fb0 5fbe 1b0b 3fbf 03f0 bc3c e7e2 60bf
00000340: e6fa afbf 7473 713b 1cc1 18be 53f7 883f
00000350: 85f2 47bf ec7a 6d3f 5834 ab3f 8cc3 6ebf
00000360: c5f8 1ebf d720 0c3d 6cb7 af3b aec6 dfbe
00000370: 9c40 cebf 9e79 d93e 7da1 0640 d6df 363f
00000380: 63e4 a73e 3589 943f 3917 4cbf 0aa6 e53e
00000390: 3268 e3bf 587f 49be 627f 793f 73bd a63f
000003a0: c27a 8bbe 7c99 1ac0 6f63 f9bf 0810 863f
000003b0: e125 b83f 04e0 473f 7a24 8d3d d0f7 2fbe
000003c0: 3178 93be 3094 cbbe 46b9 efbe fee5 9abe
000003d0: bf93 1f3f ba24 a6bf bc9c fcbf 7a17 1d3f
000003e0: b1fa 933f 497e 2f3e 8123 8f3f 0c92 953d
000003f0: 71a2 6dbf 98b1 e63d 1d79 0e3f 10ef a33d

gru.weight_ih_l0 f4 [192, 64]
-0.16063894 -0.04747101 0.16066165 -0.18514699 -0.022386355 0.14277284 -0.40067327 -0.15919389
-0.14091523 0.12747662 0.07331369 -0.015412016 0.020077432 0.045230456 -0.117447086 0.038007103
-0.085400626 0.098044634 0.03237287 -0.027460767 -0.1610941 -0.27465707 -0.24535754 0.06531449
0.12871693 -0.05877265 0.11858863 0.45122045 0.24689542 -0.07587011 -0.056751374 -0.2847032
-0.10300102 -0.16905938 0.05527637 0.08893613 0.17459758 0.11208645 0.14663084 -0.0030066448
-0.05761733 -0.12085614 -0.22596149 0.3708747 0.006355568 0.065808885 -0.023079732 -0.14445646
0.56256604 0.029043565 -0.14657024 0.2001051 0.17373016 0.18179195 0.07264912 0.056973986
-0.0071719345 -0.14741607 -0.25098297 -0.085816085 0.2784344 0.0673483 0.050952576 0.31213397
-0.10208349 -0.123689234 -0.33550018 -0.08632303 0.084447905 -0.08601401 0.0493231 0.0012281482
-0.10014139 -0.03130954 -0.057921447 0.12688707 0.020205874 -0.20870793 0.27128732 0.069040395
-0.13922401 -0.19802006 -0.1703527 0.024143836 -0.0883798 -0.20017242 0.09571038 -0.0038541479
0.10920872 -0.08898451 -0.1439913 -0.36867413 -0.051735815 -0.325488 -0.2872103 -0.16796404
0.20744392 0.1293319 -0.11385924 -0.01024244 0.08459711 -0.08305172 -0.029869579 -0.18843284
0.03995026 0.008118636 0.1317647 0.21071479 0.00275977 -0.26861382 -0.10438903 -0.06552471
-0.23109645 0.04987565 -0.10686299 0.041904006 0.08026767 -0.14682439 -0.04378402 -0.06830722
0.03922494 0.055339023 -0.06228323 -0.25025737 0.0375174 0.00017224779 -0.17676626 -0.061611384
-0.039723754 0.085180596 0.031540945 -0.11376407 -0.18169889 -0.08615234 0.12141536 -0.34154946
0.043643765 -0.31249106 0.06945275 -0.099783 0.10963635 -0.20442851 0.06926905 -0.11692055
-0.11035703 -0.25425702 0.06901342 -0.27722257 0.059520125 -0.06396746 0.011894917 -0.12108378
-0.07237289 -0.11897758 0.081009686 -0.047978684 -0.04080254 -0.19466093 0.23716669 -0.108066395
-0.26142332 -0.085125186 -0.16884162 -0.037485447 -0.035809144 0.008832923 0.23753047 -0.10181557
0.11002048 -0.34139174 0.16734387 0.24487819 0.11429043 -0.09174555 0.12947448 -0.01857319
-0.23640819 0.20831132 0.27393094 -0.25418505 -0.10689907 -0.12455324 -0.3349143 -0.0665956
-0.062189564 -0.16817752 0.1294554 0.015222067 -0.07940758 -0.17696354 -0.0022082808 0.040339388
0.06957406 -0.19946446 0.14537801 -0.30668914 -0.07796357 -0.163772 -0.059117913 0.028734572
-0.29332447 0.11688572 0.16442983 -0.05800222 -0.2044647 -0.024929263 0.048740245 -0.008989892
-0.2234153 -0.13835375 -0.45514098 -0.20859073 0.1530681 0.07417259 0.039393738 -0.026219586
-0.21743664 0.02922569 -0.3117317 -0.003109347 0.1874929 0.034373887 -0.17878678 0.20567358
0.2470269 -0.11166943 -0.17137046 -0.15301584 -0.047135536 0.08642336 0.13693261 -0.20047337
-0.031756163 0.01225557 0.048872296 0.04593578 -0.28106797 0.14153546 0.09649835 0.039809685
-0.3395433 -0.113963306 -0.25446558 0.016809842 -0.031114763 -0.02672929 0.16918534 -0.1351239
-0.023355482 0.23830663 0.19905014 0.10516221 0.017844386 -0.059087988 0.063298896 -0.31394607
00000000: 897e 24be f670 42bd 7d84 243e 2c97 3dbe
00000010: 9763 b7bc 0b33 123e 0c25 cdbe b903 23be
00000020: 154c 10be 3b89 023e 7d25 963d ae82 7cbc
00000030: 6d79 a43c 9243 393d 1988 f0bd 56ad 1b3d
00000040: 86e6 aebd a0cb c83d 6a99 043d 67f5 e0bc
00000050: daf5 24be da9f 8cbe 023f 7bbe 9ac3 853d
00000060: 5fce 033e 97bb 70bd 98de f23d 5e06 e73e
00000070: 27d2 7c3e ca61 9bbd 2174 68bd 9ec4 91be
00000080: 33f2 d2bd e71d 2dbe 7a69 623d 2524 b63d
00000090: b5c9 323e 958d e53d 6526 163e 210b 45bb
000000a0: 2600 6cbd 6d83 f7bd 7362 67be 4ae3 bd3e
000000b0: 5e42 d03b cfc6 863d b511 bdbc 65ec 13be
000000c0: 5404 103f c5ec ed3c 8216 16be 5ae8 4c3e
000000d0: 52e6 313e ab27 3a3e 10c9 943d 8e5d 693d
000000e0: 8c02 ebbb 3df4 16be d780 80be 58c0 afbd
000000f0: f48e 8e3e e8ed 893d a6b3 503d 06d0 9f3e
00000100: 2611 d1bd c850 fdbd aec6 abbe 21ca b0bd
00000110: 06f3 ac3d 1d28 b0bd 0507 4a3d d1f9 a03a
00000120: ee16 cdbd 6f3e 00bd 0a3f 6dbd afee 013e
00000130: ca86 a53c 88b7 55be 2ce6 8a3e 0d65 8d3d
00000140: bd90 0ebe c5c5 4abe f070 2ebe 4bc9 c53c
00000150: 7800 b5bd 00fa 4cbe ce03 c43d df95 7cbb
00000160: d2a8 df3d 833d b6bd 7572 13be dbc2 bcbe
00000170: efe8 53bd 5da6 a6be 3a0d 93be c4fe 2bbe
00000180: 2e6c 543e 956f 043e 092f e9bd e8cf 27bc
00000190: 4041 ad3d 0517 aabd 0cb1 f4bc 8af4 40be
000001a0: e2a2 233d 0704 053c 53ed 063e 9ec5 573e
000001b0: 42dd 343b c087 89be eac9 d5bd d231 86bd
000001c0: 8ca4 6cbe 694a 4c3d fcda dabd 89a3 2b3d
000001d0: 6063 a43d 2259 16be df56 33bd a8e4 8bbd
000001e0: 55aa 203d 2cab 623d b31c 7fbd bc21 80be
000001f0: d8ab 193d 6a9d 3439 3702 35be 385c 7cbd
00000200: 60b5 22bd 2a73 ae3d 1431 013d 23fd e8bd
00000210: 460f 3abe a370 b0bd 9ea8 f83d 92df aebe
00000220: cec3 323d d4fe 9fbe 3e3d 8e3d 085b ccbd
00000230: 0689 e03d b555 51be efdc 8d3d 0b74 efbd
00000240: de02 e2bd fa2d 82be e856 8d3d 1ef0 8dbe
00000250: 60cb 733d 5f01 83bd e6e2 423c c6fa f7bd
00000260: 3d38 94bd 84aa f3bd 68e8 a53d 4c85 44bd
00000270: 9020 27bd 3255 47be d3db 723e ea51 ddbd
00000280: 47d9 85be 1d56 aebd d1e4 2cbe 578a 19bd
00000290: 9cac 12bd f7b7 103c 303b 733e ae84 d0bd
000002a0: 6b52 e13d e6ca aebe 315c 2b3e 59c1 7a3e
000002b0: 1a11 ea3d 17e5 bbbd f594 043e cd26 98bc
000002c0: fd14 72be 904f 553e ad40 8c3e 8b24 82be
000002d0: e6ed dabd c515 ffbd e379 abbe 4663 88bd
000002e0: 7cba 7ebd ba36 2cbe f58f 043e fa65 793c
000002f0: 71a0 a2bd ee35 35be ceb8 10bb ea3a 253d
00000300: d87c 8e3d 6940 4cbe f9dd 143e 5c06 9dbe
00000310: 5dab 9fbd d9b3 27be a025 72bd c464 eb3c
00000320: a02e 96be c861 ef3d 4b60 283e bc93 6dbd
00000330: 325f 51be 7438 ccbc daa3 473d 574a 13bc
00000340: fbc6 64be 9bac 0dbe 3d08 e9be cf98 55be
00000350: e2bd 1c3e cde7 973d 545b 213d 75ca d6bc
00000360: b6a7 5ebe b76a ef3c 4c9b 9fbe 30c6 4bbb
00000370: 24fe 3f3e a2cb 0c3d e213 37be 189c 523e
00000380: 9ff4 7c3e f1b2 e4bd bd7b 2fbe 2fb0 1cbe
00000390: 3111 41bd bbfe b03d 1038 0c3e e448 4dbe
000003a0: c012 02bd 96cb 483c 512e 483d 2827 3c3d
000003b0: 24e8 8fbe acee 103e eda0 c53d 7b0f 233d
000003c0: 9fd8 adbe 9865 e9bd 5049 82be cbb4 893c
000003d0: 63e4 febc 62f7 dabc ec3e 2d3e eb5d 0abe
000003e0: ff53 bfbc a706 743e cdd3 4b3e 495f d73d
000003f0: 642e 923c 3f06 72bd daa2 813d 8abd a0be

gru.weight_hh_l0 f4 [192, 64]
-0.090487346 0.18561369 0.0765885 0.21020916 0.028134927 -0.121299 0.25405174 0.11120607
0.059798185 -0.40884173 -0.00558914 0.2171437 0.07349325 0.10103816 0.008844589 -0.24219374
-0.119322896 -0.010005475 -0.22831815 -0.1687228 0.07907376 -0.22010092 0.10219523 -0.12936218
0.07532558 -0.06428848 -0.044630907 -0.17843747 -0.18792953 -0.03235477 -0.125639 0.28271046
-0.23531482 0.25370914 0.033201136 -0.2581945 -0.1996241 0.20137165 -0.12600444 0.3708607
0.016693978 -0.23981038 -0.07207413 -0.08877991 0.13506149 0.08251605 -0.21369156 -0.088620864
0.067290895 -0.117592536 -0.12206705 0.059270207 -0.08646009 0.20868054 0.011376904 -0.069123656
0.024636457 0.089471266 0.03995556 0.06475767 0.16343282 -0.17190689 0.12048273 0.15674876
-0.20025444 -0.19596589 0.09291042 0.071112946 0.19735889 0.06925605 -0.15375455 0.03680202
-0.064468704 0.2539153 -0.11691171 0.20217772 0.01558513 0.1188632 0.064835474 0.21559975
0.1476654 0.074852906 -0.14493415 -0.070660025 0.35928565 0.08614824 0.12742312 0.119996645
-0.1303857 0.270257 0.030204296 0.031471275 -0.19421546 -0.046244726 -0.018956011 0.04765597
-0.001790597 0.14675646 0.028895956 -0.08330356 0.106228165 -0.08997753 0.20870258 -0.1354178
-0.16058026 0.0870458 0.10371312 -0.11993153 0.039011363 0.0019461141 -0.10662778 0.098798566
0.24261503 0.12473826 -0.037827276 0.26234543 0.30429682 -0.19128382 -0.071260266 0.056833915
0.22448912 -0.07516203 0.010593876 0.17712109 0.026930362 -0.042567413 0.091565 0.09319987
0.09729732 0.029350024 -0.056895766 -0.10386751 0.07486327 0.18450546 0.021322327 -0.05071126
0.07920251 0.024459861 0.047867965 0.48730248 -0.17917214 0.14184587 0.04470756 0.26602456
-0.031764794 -0.022136077 0.07714137 -0.054890398 -0.4369611 0.23618662 0.08823376 -0.04623273
-0.07244692 -0.27337316 0.12175568 0.22690651 -0.18551818 -0.15460087 0.07382955 0.016397154
0.11357416 0.34264863 -0.12862605 -0.17737523 0.07835096 -0.27819613 0.15681785 0.2663796
-0.30775824 0.2712941 0.28268337 -0.11081961 -0.14007762 0.14488928 0.05040291 -0.21074142
-0.014227173 -0.015010213 -0.20851545 -0.22089389 0.12851988 -0.00077499566 0.0854227 0.10288198
0.07137603 -0.0652538 -0.07949612 -0.024277989 0.051236052 -0.07260491 -0.1342831 -0.3498198
0.16570906 0.20899603 -0.08883076 0.016344437 0.0100064045 0.19480468 0.013328203 -0.15741867
-0.24601911 -0.0046468554 -0.13524629 0.19610626 0.12885733 0.27297702 0.28007704 -0.008315596
-0.09299382 -0.041636974 -0.06261565 -0.056033775 -0.104258046 -0.011668477 0.046106655 -0.29423305
0.14095439 -0.18628293 -0.15138634 0.035700735 0.034478728 -0.009787973 0.012347424 -0.17079517
0.056751143 0.099029265 0.00745534 0.09193496 -0.07169892 0.22973624 0.09922406 -0.14869486
0.03606259 -0.03869141 -0.038572602 -0.01717441 -0.06070772 0.07809486 0.38997164 -0.13604768
0.13562351 -0.14330557 0.054654986 0.22409007 -0.20870206 0.11219507 0.0365157 -0.18927994
0.06665332 0.010257695 0.16750838 0.3622562 0.10252836 0.30932245 0.022364521 0.25073284
00000000: 6e51 b9bd 8411 3e3e 6eda 9c3d 1241 573e
00000010: 387b e63c 9c6b f8bd 1213 823e 02c0 e33d
00000020: f1ee 743d b453 d1be 1b25 b7bb eb5a 5e3e
00000030: a183 963d 18ed ce3d e5e8 103c a301 78be
00000040: 905f f4bd 01ee 23bc 3ccc 69be abc5 2cbe
00000050: 6cf1 a13d 2362 61be bc4b d13d 8577 04be
00000060: 4c44 9a3d aea9 83bd e6ce 36bd 50b8 36be
00000070: 9970 40be 6f86 04bd 83a7 00be 6dbf 903e
00000080: 5ef6 70be 2ae6 813e eafd 073d 1232 84be
00000090: 436a 4cbe 5f34 4e3e 4f07 01be 74e1 bd3e
000000a0: cfc1 883c da90 75be 9a9b 93bd 3ed2 b5bd
000000b0: 8f4d 0a3e 2dfe a83d f6d1 5abe db7e b5bd
000000c0: cfcf 893d 5bd4 f0bd 4afe f9bd 51c5 723d
000000d0: fd11 b1bd 5ab0 553e 3266 3a3c b490 8dbd
000000e0: 65d2 c93c b63c b73d 71a8 233d ab9f 843d
000000f0: ef5a 273e 5c08 30be a6bf f63d bf82 203e
00000100: 800f 4dbe 48ab 48be d147 be3d aaa3 913d
00000110: 7318 4a3e 1ed6 8d3d d571 1dbe b7bd 163d
00000120: 2b08 84bd 3001 823e 686f efbd ad07 4f3e
00000130: c658 7f3c 8d6e f33d 76c8 843d 2ec6 5c3e
00000140: 9935 173e 7b4c 993d 9e69 14be 34b6 90bd
00000150: 4af4 b73e 7d6e b03d 357b 023e cdc0 f53d
00000160: d483 05be 205f 8a3e 006f f73c 06e8 003d
00000170: 6be0 46be 1c6b 3dbd a349 9bbc e832 433d
00000180: 77b2 eaba 5347 163e 36b7 ec3c 0f9b aabd
00000190: 278e d93d 2446 b8bd 21b6 553e f7aa 0abe
000001a0: 276f 24be 1245 b23d 8b67 d43d a99e f5bd
000001b0: 61ca 1f3d c114 ff3a aa5f dabd e756 ca3d
000001c0: 1370 783e c676 ff3d c6f0 1abd 2452 863e
000001d0: cbcc 9b3e e8df 43be e7f0 91bd aeca 683d
000001e0: 7ae0 653e 8dee 99bd f091 2d3c 3b5f 353e
000001f0: 109d dc3c 2b5b 2ebd 6e86 bb3d 93df be3d
00000200: d143 c73d 766f f03c 890b 69bd 7db8 d4bd
00000210: ea51 993d 00ef 3c3e 29ac ae3c 9cb6 4fbd
00000220: ed34 a23d 0c60 c83c 3311 443d b67f f93e
00000230: e778 37be 0b40 113e 461f 373d 5f34 883e
00000240: cd1b 02bd b856 b5bc 4bfc 9d3d c1d4 60bd
00000250: 5eb9 dfbe e8da 713e e7b3 b43d 885e 3dbd
00000260: 0d5f 94bd 91f7 8bbe 0b5b f93d 2e5a 683e
00000270: 7af8 3dbe b14f 1ebe f233 973d 5353 863c
00000280: 9299 e83d a46f af3e 8cb6 03be daa1 35be
00000290: 7876 a03d b96f 8ebe dc94 203e e862 883e
000002a0: 7d92 9dbe 0fe7 8a3e e0bb 903e 64f5 e2bd
000002b0: 8270 0fbe db5d 143e 4873 4e3d 99cc 57be
000002c0: 1719 69bc 65ed 75bc 1385 55be 0232 62be
000002d0: b79a 033e 1429 4bba 19f2 ae3d cab3 d23d
000002e0: 992d 923d c9a3 85bd ddce a2bd a2e2 c6bc
000002f0: e5dc 513d e2b1 94bd 8281 09be 951b b3be
00000300: a3af 293e 0e03 563e e7ec b5bd c5e4 853c
00000310: e7f1 233c e17a 473e 895e 5a3c 5c32 21be
00000320: 6fec 7bbe a644 98bb 017e 0abe 14d0 483e
00000330: 2df3 033e a5c3 8b3e 4266 8f3e 233e 08bc
00000340: 8b73 bebd 888b 2abd a23c 80bd ac83 65bd
00000350: 3e85 d5bd 242d 3fbc 55da 3c3d b7a5 96be
00000360: 5956 103e f4c0 3ebe 0505 1bbe ef3a 123d
00000370: 9139 0d3d bc5d 20bc da4c 4a3c eee4 2ebe
00000380: e373 683d dbcf ca3d ed4b f43b 6548 bc3d
00000390: e2d6 92bd fa3f 6b3e fc35 cb3d 7743 18be
000003a0: 5eb6 133d e27a 1ebd 4efe 1dbd 59b1 8cbc
000003b0: a9a8 78bd 33f0 9f3d 5daa c73e 1550 0bbe
000003c0: e4e0 0a3e b2be 12be e8dd 5f3d de77 653e
000003d0: feb5 55be 87c6 e53d 7d91 153d 9ad2 41be
000003e0: 8981 883d e40f 283c 5187 2b3e a579 b93e
000003f0: 64fa d13d 835f 9e3e cd35 b73c 0e60 803e

gru.bias_ih_l0 f4 [192]
-0.12999563 -0.025833676 -0.05556627 -0.008561862 -0.021405095 0.20697655 -0.09837341 0.13479255
-0.07488407 0.027322836 0.013915168 0.24222027 0.061858673 -0.017724592 -0.015517013 0.030408593
-0.0760861 0.15797664 -0.15422262 -0.20677076 -0.080284305 0.0887631 0.020295678 0.08666994
-0.06000146 0.013932025 -0.11655961 -0.12865195 0.016081942 -0.121970125 0.15968326 -0.11132329
0.023662299 0.053708095 0.30647397 -0.11168918 -0.086821415 -0.119979 -0.26281738 0.049883347
-0.003052858 -0.05042201 -0.06742186 -0.13353261 0.023749996 -0.13824071 -0.015870329 -0.01043643
-0.074243166 -0.16105331 -0.11201204 0.14271633 0.17943303 -0.02818691 -0.07318423 -0.076980576
-0.04473317 0.018387074 0.05959094 0.056040213 0.012182959 -0.072154395 -0.090659685 -0.03571212
-0.3714858 -0.009573436 -0.18407477 -0.23866843 -0.2396622 -0.20374247 0.046517197 -0.06130945
0.008609838 -0.05220327 -0.2974427 -0.17432667 -0.0958836 -0.057244077 -0.089102075 0.074921034
0.029191105 -0.2063611 -0.25966844 -0.19915144 -0.16833831 -0.23412973 -0.33510548 -0.14712717
-0.16791582 -0.10520553 -0.0051642354 0.0044965134 -0.21834803 -0.0632141 -0.18402135 0.098181106
-0.11054759 -0.1906687 -0.74660194 -0.18698128 -0.0064454274 0.04625016 -0.28531176 -0.11847209
-0.19970927 -0.015690649 -0.1936107 -0.13688152 0.0074198884 -0.1001895 0.09470495 -0.0825491
-0.23805724 -0.077026166 -0.21327211 -0.37963971 -0.40147924 -0.09295217 -0.34439752 -0.10777396
-0.20080543 -0.16452296 -0.2044039 -0.2675436 -0.25095055 -0.31871945 0.102638684 -0.041874357
-0.0970505 0.13526484 -0.15945889 -0.11563045 -0.07369885 -0.16422865 -0.012795468 0.19166002
0.07716833 0.0064766784 -0.065419644 -0.076474346 0.06503409 0.04845813 -0.20874463 0.0066652214
-0.009394455 0.046771348 0.10772919 0.07673458 -0.12869467 0.198954 0.028401297 0.17345671
-0.14530523 -0.059089657 -0.04047451 -0.065765895 -0.054272916 -0.008320981 0.13384117 0.14840034
0.006499909 -0.10071048 -0.15332168 0.13433325 0.14029756 -0.042952735 0.06703848 -0.04321849
-0.07544228 0.011465397 -0.19054522 0.09616685 0.08109941 -0.055258356 -0.057406314 -0.1273281
0.023043519 -0.073536 0.011687208 0.069068454 -0.21396506 0.016127655 -0.25636455 -0.11935705
0.028359048 0.069508225 0.08594186 -0.19191566 -0.18806478 0.16080251 -0.18457513 -0.11207809
00000000: 931d 05be 25a1 d3bc 7599 63bd 0d47 0cbc
00000010: bd59 afbc a9f1 533e 0078 c9bd 0f07 0a3e
00000020: d25c 99bd 24d4 df3c 72fc 633c 9708 783e
00000030: 855f 7d3d 2a33 91bc 123b 7ebc 711b f93c
00000040: 07d3 9bbd a1c4 213e 89ec 1dbe b7bb 53be
00000050: 196c a4bd 6ec9 b53d 1f43 a63c 0280 b13d
00000060: 17c4 75bd 2643 643c ceb6 eebd 56bd 03be
00000070: 47be 833c 79cb f9bd 0284 233e 77fd e3bd
00000080: 70d7 c13c 05fd 5b3d 28ea 9c3e 4cbd e4bd
00000090: 6dcf b1bd 8db7 f5bd 0090 86be 7b52 4c3d
000000a0: 7512 48bb 4f87 4ebd 7914 8abd c6bc 08be
000000b0: 5a8f c23c f98e 0dbe 7e02 82bc 8ffd 2abc
000000c0: cd0c 98bd 29eb 24be 9266 e5bd 3b24 123e
000000d0: 4bbd 373e 3ce8 e6bc 9de1 95bd fea7 9dbd
000000e0: 213a 37bd 7da0 963c a115 743d 6c8a 653d
000000f0: 099b 473c afc5 93bd c9ab b9bd df46 12bd
00000100: 6333 bebe e7d9 1cbc 197e 3cbe 7f65 74be
00000110: 026a 75be dea1 50be d188 3e3d 9e1f 7bbd
00000120: 4710 0d3c 19d3 55bd 694a 98be b182 32be
00000130: 9f5e c4bd c478 6abd 267b b6bd 3370 993d
00000140: 2f22 ef3c 5350 53be 43f3 84be 5bee 4bbe
00000150: e160 2cbe b4bf 6fbe f292 abbe 81a8 16be
00000160: 20f2 2bbe ff75 d7bd bf38 a9bb 7d57 933b
00000170: a096 5fbe 6576 81bd 1870 3cbe 2d13 c93d
00000180: c666 e2bd a83e 43be 4e21 3fbf 0578 3fbe
00000190: 2a34 d3bb cf70 3d3d 6214 92be 7fa1 f2bd
000001a0: 9680 4cbe ad89 80bc e241 46be ab2a 0cbe
000001b0: 8922 f33b 2730 cdbd abf4 c13d 810f a9bd
000001c0: 47c5 73be e5bf 9dbd 0164 5abe 2360 c2be
000001d0: b08e cdbe b55d bebd df54 b0be 98b8 dcbd
000001e0: f09f 4dbe b578 28be 424f 51be 7afb 88be
000001f0: 977c 80be 322f a3be 3b34 d23d 7284 2bbd
00000200: 6ac2 c6bd de82 0a3e 3149 23be a8cf ecbd
00000210: 6cef 96bd 8e2b 28be 15a4 51bc 8642 443e
00000220: 6e0a 9e3d 513a d43b bcfa 85bd 959e 9cbd
00000230: 9830 853d 087c 463d 27c1 55be ee67 da3b
00000240: 33eb 19bc 5093 3f3d 1fa1 dc3d 0527 9d3d
00000250: 89c8 03be 99ba 4b3e d6a9 e83c a39e 313e
00000260: e5ca 14be ff07 72bd 9ac8 25bd 45b0 86bd
00000270: 474d 5ebd b954 08bc a90d 093e 42f6 173e
00000280: 30fd d43b 4c41 cebd 5c00 1dbe a88e 093e
00000290: 2aaa 0f3e 35ef 2fbd 784b 893d df05 31bd
000002a0: 7b81 9abd 5cd9 3b3c 491e 43be 20f3 c43d
000002b0: 7317 a63d 9656 62bd e222 6bbd 4c62 02be
000002c0: c3c5 bc3c 0b9a 96bd b47b 3f3c c373 8d3d
000002d0: a819 5bbe 251e 843c 3742 83be 7871 f4bd
000002e0: 3c51 e83c 545a 8e3d 4902 b03d 8a85 44be
000002f0: 0e94 40be 6aa9 243e 4301 3dbe 3389 e5bd

gru.bias_hh_l0 f4 [192]
-0.21528606 -0.050695267 -0.101571426 0.03293712 -0.11637531 0.15736753 0.032439105 -0.0004361204
-0.041989278 -0.16799538 0.20223947 0.01016954 0.07854232 0.08237393 0.03956176 0.13351367
-0.13611704 0.03579331 -0.10887929 -0.31448394 0.02579221 -0.055080276 0.017107833 -0.10475839
-0.060111225 -0.0046128863 -0.033812318 -0.11519756 -0.17840895 -0.07451142 0.062278803 -0.06678629
-0.060760614 0.010643491 0.1942282 0.059111986 0.06205538 -0.11002472 -0.02919464 -0.055829342
-0.07114307 -0.16190042 -0.1479558 -0.18445952 0.014661236 0.062140763 0.039276432 0.13649614
-0.07979142 -0.0075287754 -0.11154739 0.01694498 0.16022299 -0.026082424 0.02731558 -0.055362616
0.013033946 -0.069711864 0.15670559 -0.11463502 0.021721257 -0.1748733 0.069948286 -0.1662337
-0.46439907 0.024563016 -0.14721762 -0.2044168 -0.06401716 -0.28176272 -0.09044889 0.07340975
-0.10233273 -0.10402328 -0.16367532 -0.16899163 -0.11603902 -0.10323805 -0.11152981 0.053704616
-0.057236444 -0.25245836 -0.33609566 -0.2514481 0.024675129 -0.18434414 -0.40079448 -0.06453816
-0.2180066 -0.09965761 0.042693682 -0.20151298 -0.23978424 -0.29679847 -0.21918532 -0.030033464
-0.24487448 -0.3262147 -0.6748693 -0.10953536 -0.02452728 0.0343298 -0.17880414 -0.16550885
-0.24326527 -0.11051487 -0.3157338 -0.25382322 -0.15595303 -0.21316986 0.06748782 -0.10193241
-0.23888455 -0.21060069 -0.27662975 -0.2844523 -0.49884078 -0.13134967 -0.29272428 -0.19051853
-0.23820864 -0.038196944 -0.06340113 -0.22256504 -0.40840387 -0.31413865 -0.076009415 -0.14888409
-0.1006669 0.16695783 -0.077318 -0.21334437 0.10537477 -0.07158895 0.06309799 0.066650465
0.06926334 0.08665186 -0.11466016 -0.10448969 0.01961231 0.05844554 -0.006232601 0.15643056
0.03561809 -0.03772246 0.021100663 0.06178905 -0.075161114 0.18911469 -0.14503488 0.12184499
-0.2131147 0.010257756 -0.13515475 0.0993506 -0.03155911 -0.050713684 0.010256984 -0.070845224
0.016887125 0.055105478 -0.155315 0.049867567 0.18438941 0.102028675 -0.07714835 0.12320024
-0.038618267 0.10518908 -0.17671148 0.069135904 0.22773233 0.04307726 0.08230625 -0.12190195
0.06807146 0.07063606 0.071248196 -0.058807373 -0.27799317 -0.03159075 -0.1486692 -0.14045389
-0.0004122452 -0.06997897 -0.0040045097 -0.15649529 -0.12626342 0.02361517 -0.11983091 -0.12212404
00000000: f373 5cbe d7a5 4fbd ae04 d0bd 13e9 063d
00000010: 2e56 eebd f424 213e dede 043d 17a7 e4b9
00000020: f3fc 2bbd fb06 2cbe dd17 4f3e 249e 263c
00000030: ccda a03d aab3 a83d 830b 223d cfb7 083e
00000040: 4462 0bbe 019c 123d 1bfc debd 0a04 a1be
00000050: 2f4a d33c db9b 61bd ba25 8c3c 918b d6bd
00000060: 3037 76bd b227 97bb c97e 0abd b3ec ebbd
00000070: d6b0 36be 7299 98bd 0f18 7f3d 40c7 88bd
00000080: 1fe0 78bd 0962 2e3c c2e3 463e 691f 723d
00000090: c82d 7e3d a454 e1bd 9929 efbc 4fad 64bd
000000a0: 75b3 91bd 39c9 25be ba81 17be f5e2 3cbe
000000b0: ae35 703c 5087 7e3d 53e0 203d a5c5 0b3e
000000c0: af69 a3bd f2b3 f6bb f572 e4bd 33d0 8a3c
000000d0: 7f11 243e cfaa d5bc ecc4 df3c e9c3 62bd
000000e0: 558c 553c 18c5 8ebd 6e77 203e c4c5 eabd
000000f0: c7f0 b13c fd11 33be 0c41 8f3d 2b39 2abe
00000100: b7c5 edbe 6138 c93c 37c0 16be a352 51be
00000110: 6e1b 83bd 3443 90be 453d b9bd da57 963d
00000120: d393 d1bd 280a d5bd 819a 27be 240c 2dbe
00000130: dea5 edbd 796e d3bd be69 e4bd 5ff9 5b3d
00000140: c370 6abd 3942 81be bb14 acbe cebd 80be
00000150: 7f23 ca3c b6c4 3cbe ef34 cdbe 952c 84bd
00000160: 1f3d 5fbe 4a19 ccbd 92df 2e3d 6b59 4ebe
00000170: 008a 75be f8f5 97be 1e72 60be bd08 f6bc
00000180: 60c0 7abe 9d05 a7be 3cc4 2cbf 1354 e0bd
00000190: 6fed c8bc 689d 0c3d 6f18 37be 277b 29be
000001a0: 881a 79be 9f55 e2bd dca7 a1be 1ef5 81be
000001b0: 27b2 1fbe 3349 5abe 0e37 8a3d f0c1 d0bd
000001c0: 279e 74be b5a7 57be 6aa2 8dbe bba3 91be
000001d0: 0f68 ffbe 8780 06be f5df 95be 4a17 43be
000001e0: f7ec 73be 6674 1cbd 74d8 81bd 17e8 63be
000001f0: 501a d1be c8d6 a0be d3aa 9bbd 1275 18be
00000200: 732a cebd fef6 2a3e e658 9ebd f276 5abe
00000210: bace d73d 3a9d 92bd 8539 813d 0a80 883d
00000220: f0d9 8d3d 8876 b13d f2d2 eabd b1fe d5bd
00000230: ffa9 a03c 9764 6f3d d93a ccbb 552f 203e
00000240: 46e4 113d de82 1abd 4cdb ac3c 8416 7d3d
00000250: 12ee 99bd 48a7 413e 0684 14be de89 f93d
00000260: bd3a 5abe 2610 283c 0266 0abe 5478 cb3d
00000270: 2044 01bd 27b9 4fbd e90c 283c 4d17 91bd
00000280: de56 8a3c 48b6 613d e50a 1fbe ef41 4c3d
00000290: 94d0 3c3e 69f4 d03d f4ff 9dbd 6850 fc3d
000002a0: 302e 1ebd 5f6d d73d dbf3 34be 2097 8d3d
000002b0: aa32 693e c871 303d 2e90 a83d bba7 f9bd
000002c0: 0d69 8b3d a3a9 903d 93ea 913d 00e0 70bd
000002d0: 1f55 8ebe 4d65 01bd bd3c 18be 25d3 0fbe
000002e0: 9d22 d8b9 2251 8fbd 4338 83bb 4d40 20be
000002f0: 334b 01be 9a74 c13c e869 f5bd 2b1c fabd
